…
============================================================
Loading data: train.csv
Data dimensions: (80000, 51)
Loading data: test.csv
Data dimensions: (20000, 50)

Starting training data preprocessing...
Original data dimensions: (80000, 51)
After removing samples with >50% missing variables: (80000, 51)
Final feature count: 40
Feature dimensions: (80000, 40), Label dimensions: (80000,)
Positive sample ratio: 0.3683
Negative sample ratio: 0.6318

Dataset Split:
Training set: (64000, 40), Positive ratio: 0.3683
Validation set: (16000, 40), Positive ratio: 0.3683

Transformer Model Structure:
TabularTransformer(
  (feature_embedding): Linear(in_features=1, out_features=128, bias=True)
  (pos_encoding): PositionalEncoding()
  (encoder_layers): ModuleList(
    (0-3): 4 x TransformerEncoderLayer(
      (attention): MultiHeadAttention(
        (W_q): Linear(in_features=128, out_features=128, bias=True)
        (W_k): Linear(in_features=128, out_features=128, bias=True)
        (W_v): Linear(in_features=128, out_features=128, bias=True)
        (W_o): Linear(in_features=128, out_features=128, bias=True)
        (dropout): Dropout(p=0.1, inplace=False)
      )
      (feed_forward): FeedForward(
        (linear1): Linear(in_features=128, out_features=512, bias=True)
        (linear2): Linear(in_features=512, out_features=128, bias=True)
        (dropout): Dropout(p=0.1, inplace=False)
        (activation): ReLU()
      )
      (norm1): LayerNorm((128,), eps=1e-05, elementwise_affine=True)
      (norm2): LayerNorm((128,), eps=1e-05, elementwise_affine=True)
      (dropout1): Dropout(p=0.1, inplace=False)
      (dropout2): Dropout(p=0.1, inplace=False)
    )
  )
  (dropout): Dropout(p=0.1, inplace=False)
  (classifier): Sequential(
    (0): Linear(in_features=128, out_features=256, bias=True)
    (1): LayerNorm((256,), eps=1e-05, elementwise_affine=True)
    (2): ReLU()
    (3): Dropout(p=0.1, inplace=False)
    (4): Linear(in_features=256, out_features=128, bias=True)
    (5): LayerNorm((128,), eps=1e-05, elementwise_affine=True)
    (6): ReLU()
    (7): Dropout(p=0.1, inplace=False)
    (8): Linear(in_features=128, out_features=1, bias=True)
    (9): Sigmoid()
  )
)
Parameter count: 860,161

Starting Transformer model training...
Training set: 64000, Validation set: 16000
Epoch [5/100] - Train Loss: 0.0272, Val Loss: 0.0267, Val AUC: 0.8843, Val F1: 0.7147
Epoch [10/100] - Train Loss: 0.0264, Val Loss: 0.0259, Val AUC: 0.8914, Val F1: 0.7512
Epoch [15/100] - Train Loss: 0.0260, Val Loss: 0.0257, Val AUC: 0.8925, Val F1: 0.7502
…
